…
I0615 12:14:16.384979 29589 net.cpp:54] Initializing net from parameters: 
state {
  phase: TRAIN
  level: 0
  stage: ""
}
layer {
  name: "data"
  type: "MolGridData"
  top: "data"
  top: "label"
  top: "affinity"
  top: "peturb"
  include {
    phase: TRAIN
  }
  molgrid_data_param {
    source: "../../data/PDBbind/refined-set/types/crystal_0.5_2_train1.types"
    batch_size: 50
    dimension: 23.5
    resolution: 0.5
    shuffle: true
    balanced: false
    root_folder: "../../data/PDBbind/refined-set"
    random_rotation: true
    random_translate: 2
    has_affinity: true
    peturb_ligand: true
  }
}
layer {
  name: "unit1_pool"
  type: "Pooling"
  bottom: "data"
  top: "unit1_pool"
  pooling_param {
    pool: MAX
    kernel_size: 2
    stride: 2
  }
}
layer {
  name: "unit1_conv1"
  type: "Convolution"
  bottom: "unit1_pool"
  top: "unit1_conv1"
  convolution_param {
    num_output: 32
    pad: 1
    kernel_size: 3
    stride: 1
    weight_filler {
      type: "xavier"
    }
  }
}
layer {
  name: "unit1_relu1"
  type: "ReLU"
  bottom: "unit1_conv1"
  top: "unit1_conv1"
}
layer {
  name: "unit2_pool"
  type: "Pooling"
  bottom: "unit1_conv1"
  top: "unit2_pool"
  pooling_param {
    pool: MAX
    kernel_size: 2
    stride: 2
  }
}
layer {
  name: "unit2_conv1"
  type: "Convolution"
  bottom: "unit2_pool"
  top: "unit2_conv1"
  convolution_param {
    num_output: 64
    pad: 1
    kernel_size: 3
    stride: 1
    weight_filler {
      type: "xavier"
    }
  }
}
layer {
  name: "unit2_relu1"
  type: "ReLU"
  bottom: "unit2_conv1"
  top: "unit2_conv1"
}
layer {
  name: "unit3_pool"
  type: "Pooling"
  bottom: "unit2_conv1"
  top: "unit3_pool"
  pooling_param {
    pool: MAX
    kernel_size: 2
    stride: 2
  }
}
layer {
  name: "unit3_conv1"
  type: "Convolution"
  bottom: "unit3_pool"
  top: "unit3_conv1"
  convolution_param {
    num_output: 128
    pad: 1
    kernel_size: 3
    stride: 1
    weight_filler {
      type: "xavier"
    }
  }
}
layer {
  name: "unit3_relu1"
  type: "ReLU"
  bottom: "unit3_conv1"
  top: "unit3_conv1"
}
layer {
  name: "output_fc"
  type: "InnerProduct"
  bottom: "unit3_conv1"
  top: "output_fc"
  inner_product_param {
    num_output: 6
    weight_filler {
      type: "xavier"
    }
  }
}
layer {
  name: "loss"
  type: "EuclideanLoss"
  bottom: "output_fc"
  bottom: "peturb"
  top: "loss"
}
I0615 12:14:16.385013 29589 layer_factory.hpp:77] Creating layer data
I0615 12:14:16.385026 29589 net.cpp:87] Creating Layer data
I0615 12:14:16.385031 29589 net.cpp:383] data -> data
I0615 12:14:16.385053 29589 net.cpp:383] data -> label
I0615 12:14:16.385061 29589 net.cpp:383] data -> affinity
I0615 12:14:16.385064 29589 net.cpp:383] data -> peturb
I0615 12:14:16.385080 29589 molgrid_data_layer.cpp:374] Opening file ../../data/PDBbind/refined-set/types/crystal_0.5_2_train1.types
I0615 12:14:16.389183 29589 molgrid_data_layer.cpp:451] Total examples: 2684
I0615 12:14:16.389607 29589 net.cpp:125] Setting up data
I0615 12:14:16.389621 29589 net.cpp:132] Top shape: 50 35 48 48 48 (193536000)
I0615 12:14:16.389624 29589 net.cpp:132] Top shape: 50 (50)
I0615 12:14:16.389626 29589 net.cpp:132] Top shape: 50 (50)
I0615 12:14:16.389629 29589 net.cpp:132] Top shape: 50 6 (300)
I0615 12:14:16.389631 29589 net.cpp:140] Memory required for data: 774145600
I0615 12:14:16.389636 29589 layer_factory.hpp:77] Creating layer unit1_pool
I0615 12:14:16.389648 29589 net.cpp:87] Creating Layer unit1_pool
I0615 12:14:16.389658 29589 net.cpp:409] unit1_pool <- data
I0615 12:14:16.389667 29589 net.cpp:383] unit1_pool -> unit1_pool
I0615 12:14:16.389755 29589 net.cpp:125] Setting up unit1_pool
I0615 12:14:16.389760 29589 net.cpp:132] Top shape: 50 35 24 24 24 (24192000)
I0615 12:14:16.389762 29589 net.cpp:140] Memory required for data: 870913600
I0615 12:14:16.389765 29589 layer_factory.hpp:77] Creating layer unit1_conv1
I0615 12:14:16.389773 29589 net.cpp:87] Creating Layer unit1_conv1
I0615 12:14:16.389776 29589 net.cpp:409] unit1_conv1 <- unit1_pool
I0615 12:14:16.389780 29589 net.cpp:383] unit1_conv1 -> unit1_conv1
I0615 12:14:16.390575 29589 net.cpp:125] Setting up unit1_conv1
I0615 12:14:16.390583 29589 net.cpp:132] Top shape: 50 32 24 24 24 (22118400)
I0615 12:14:16.390585 29589 net.cpp:140] Memory required for data: 959387200
I0615 12:14:16.390599 29589 layer_factory.hpp:77] Creating layer unit1_relu1
I0615 12:14:16.390604 29589 net.cpp:87] Creating Layer unit1_relu1
I0615 12:14:16.390606 29589 net.cpp:409] unit1_relu1 <- unit1_conv1
I0615 12:14:16.390609 29589 net.cpp:370] unit1_relu1 -> unit1_conv1 (in-place)
I0615 12:14:16.390614 29589 net.cpp:125] Setting up unit1_relu1
I0615 12:14:16.390617 29589 net.cpp:132] Top shape: 50 32 24 24 24 (22118400)
I0615 12:14:16.390620 29589 net.cpp:140] Memory required for data: 1047860800
I0615 12:14:16.390622 29589 layer_factory.hpp:77] Creating layer unit2_pool
I0615 12:14:16.390627 29589 net.cpp:87] Creating Layer unit2_pool
I0615 12:14:16.390630 29589 net.cpp:409] unit2_pool <- unit1_conv1
I0615 12:14:16.390633 29589 net.cpp:383] unit2_pool -> unit2_pool
I0615 12:14:16.390717 29589 net.cpp:125] Setting up unit2_pool
I0615 12:14:16.390722 29589 net.cpp:132] Top shape: 50 32 12 12 12 (2764800)
I0615 12:14:16.390724 29589 net.cpp:140] Memory required for data: 1058920000
I0615 12:14:16.390727 29589 layer_factory.hpp:77] Creating layer unit2_conv1
I0615 12:14:16.390733 29589 net.cpp:87] Creating Layer unit2_conv1
I0615 12:14:16.390735 29589 net.cpp:409] unit2_conv1 <- unit2_pool
I0615 12:14:16.390738 29589 net.cpp:383] unit2_conv1 -> unit2_conv1
I0615 12:14:16.391327 29589 net.cpp:125] Setting up unit2_conv1
I0615 12:14:16.391335 29589 net.cpp:132] Top shape: 50 64 12 12 12 (5529600)
I0615 12:14:16.391337 29589 net.cpp:140] Memory required for data: 1081038400
I0615 12:14:16.391343 29589 layer_factory.hpp:77] Creating layer unit2_relu1
I0615 12:14:16.391347 29589 net.cpp:87] Creating Layer unit2_relu1
I0615 12:14:16.391350 29589 net.cpp:409] unit2_relu1 <- unit2_conv1
I0615 12:14:16.391353 29589 net.cpp:370] unit2_relu1 -> unit2_conv1 (in-place)
I0615 12:14:16.391357 29589 net.cpp:125] Setting up unit2_relu1
I0615 12:14:16.391360 29589 net.cpp:132] Top shape: 50 64 12 12 12 (5529600)
I0615 12:14:16.391362 29589 net.cpp:140] Memory required for data: 1103156800
I0615 12:14:16.391364 29589 layer_factory.hpp:77] Creating layer unit3_pool
I0615 12:14:16.391369 29589 net.cpp:87] Creating Layer unit3_pool
I0615 12:14:16.391371 29589 net.cpp:409] unit3_pool <- unit2_conv1
I0615 12:14:16.391374 29589 net.cpp:383] unit3_pool -> unit3_pool
I0615 12:14:16.391458 29589 net.cpp:125] Setting up unit3_pool
I0615 12:14:16.391463 29589 net.cpp:132] Top shape: 50 64 6 6 6 (691200)
I0615 12:14:16.391465 29589 net.cpp:140] Memory required for data: 1105921600
I0615 12:14:16.391468 29589 layer_factory.hpp:77] Creating layer unit3_conv1
I0615 12:14:16.391474 29589 net.cpp:87] Creating Layer unit3_conv1
I0615 12:14:16.391476 29589 net.cpp:409] unit3_conv1 <- unit3_pool
I0615 12:14:16.391479 29589 net.cpp:383] unit3_conv1 -> unit3_conv1
I0615 12:14:16.392607 29589 net.cpp:125] Setting up unit3_conv1
I0615 12:14:16.392616 29589 net.cpp:132] Top shape: 50 128 6 6 6 (1382400)
I0615 12:14:16.392617 29589 net.cpp:140] Memory required for data: 1111451200
I0615 12:14:16.392623 29589 layer_factory.hpp:77] Creating layer unit3_relu1
I0615 12:14:16.392627 29589 net.cpp:87] Creating Layer unit3_relu1
I0615 12:14:16.392630 29589 net.cpp:409] unit3_relu1 <- unit3_conv1
I0615 12:14:16.392637 29589 net.cpp:370] unit3_relu1 -> unit3_conv1 (in-place)
I0615 12:14:16.392644 29589 net.cpp:125] Setting up unit3_relu1
I0615 12:14:16.392648 29589 net.cpp:132] Top shape: 50 128 6 6 6 (1382400)
I0615 12:14:16.392650 29589 net.cpp:140] Memory required for data: 1116980800
I0615 12:14:16.392652 29589 layer_factory.hpp:77] Creating layer output_fc
I0615 12:14:16.392657 29589 net.cpp:87] Creating Layer output_fc
I0615 12:14:16.392659 29589 net.cpp:409] output_fc <- unit3_conv1
I0615 12:14:16.392663 29589 net.cpp:383] output_fc -> output_fc
I0615 12:14:16.393558 29589 net.cpp:125] Setting up output_fc
I0615 12:14:16.393565 29589 net.cpp:132] Top shape: 50 6 (300)
I0615 12:14:16.393568 29589 net.cpp:140] Memory required for data: 1116982000
I0615 12:14:16.393573 29589 layer_factory.hpp:77] Creating layer loss
I0615 12:14:16.393576 29589 net.cpp:87] Creating Layer loss
I0615 12:14:16.393579 29589 net.cpp:409] loss <- output_fc
I0615 12:14:16.393582 29589 net.cpp:409] loss <- peturb
I0615 12:14:16.393586 29589 net.cpp:383] loss -> loss
I0615 12:14:16.393609 29589 net.cpp:125] Setting up loss
…
